Chatbot/data.pth (torch, 5527 bytes, 6 tensors)

l1.weight f4 [8, 65]
0	0xbe2ec241	-0.1706629
1	0x3af3b5d0	0.0018593613
2	0x3ef9e4b9	0.48807314
3	0xbe54efd8	-0.20794618
4	0x3decca03	0.11561968
5	0x3ec902ad	0.39259854
6	0x3e4c9657	0.19979225
7	0x3f48d7b8	0.7845416
8	0x3eac7ac5	0.33687416
9	0x3eb8cc70	0.36093473
10	0x3ed895a1	0.42301658
11	0x3ec6e1fc	0.38844287
12	0x3e8d31e3	0.27577123
13	0xbe2f6a4c	-0.17130393
14	0x3f134f19	0.5754257
15	0x3e555426	0.20832881
16	0x3ed18eef	0.40929362
17	0xbd0f6e9f	-0.035017606
18	0x3eb94fb8	0.36193633
19	0xbe8e04f0	-0.27738142
20	0x3f3f34e0	0.74690056
21	0x3dd204b5	0.10254804
22	0xbdce2d83	-0.100672744
23	0xbf03d2cb	-0.5149352
24	0xbdb76ffe	-0.08956908
25	0xbef4c758	-0.47808337
26	0xbeb5f5a0	-0.3553896
27	0x3e9c7d9c	0.30564582
28	0x3f153da9	0.5829721
29	0x3e5c80a9	0.21533455
30	0xbde91dcc	-0.113826364
31	0xbdc69c61	-0.09697796
32	0x3d9fdc19	0.07805652
33	0x3e0026ae	0.12514755
34	0x3f0b3a6e	0.5438603
35	0x3ec0185d	0.37518588
36	0xbdd75f1c	-0.105161875
37	0x3ef70ac2	0.48250395
38	0xbdfbcee3	-0.1229532
39	0x3f069e0d	0.52584916
40	0x3ece0997	0.4024169
41	0x3e1287e1	0.14309646
42	0x3e280a1f	0.16410111
43	0x3eac5b4f	0.33663413
44	0x3edb9fc8	0.4289534
45	0x3f11116a	0.56667197
46	0x3e4c385e	0.19943377
47	0x3e51ee7f	0.20501135
48	0x3e5af2f0	0.21381736
49	0x3f0d7bc8	0.55267
50	0xbe428131	-0.18994595
51	0x3eb390ab	0.3507131
52	0xbe212c1f	-0.15739487
53	0x3f16b358	0.58867407
54	0xbe9fb210	-0.31190538
55	0xbf0589b5	-0.5216325
56	0xbe89cb9e	-0.2691316
57	0x3ec8eb7f	0.3924217
58	0xbe96d49c	-0.29459083
59	0x3e633f15	0.22192033
60	0xbd8b3466	-0.067971036
61	0x3ea142c2	0.31496245
62	0xbe4e5865	-0.20150907
63	0x3e93f666	0.28898925
64	0xbcbb4246	-0.02285875
65	0x3d26162e	0.040548496
66	0x3e97a855	0.29620615
67	0x3e8cdf00	0.27513885
68	0xbe82b2a3	-0.25526914
69	0xbed3cdbb	-0.41367897
70	0x3ee3e3bf	0.44509694
71	0x3e3f34d6	0.18672499
72	0x3aee2b4f	0.0018170866
73	0x3ef2c950	0.47419214
74	0x3e72e44b	0.237199
75	0x3edc9a1f	0.43086335
76	0x3ec05b4f	0.37569663
77	0x3ea32d64	0.31870568
78	0xbe73b274	-0.23798543
79	0x3ef4eb19	0.47835615
80	0x3f443831	0.7664824
81	0x3ef970f5	0.48718992
82	0x3ed35888	0.4127848
83	0x3f0580aa	0.5214945
84	0xbd9dd30f	-0.07706272
85	0xbddd96af	-0.10819756
86	0x3e8938bd	0.268011
87	0x3e79f474	0.24409658
88	0xbea15e26	-0.31517142
89	0x3cddf622	0.027094904
90	0xbea15797	-0.31512138
91	0xbe92626f	-0.28590724
92	0x3e388bbb	0.18022053
93	0x3eda6434	0.42654574
94	0x3ea99f1b	0.331292
95	0x3e736e6f	0.23772596
96	0x3ead8dd8	0.3389728
97	0x3f0b2a77	0.5436167
98	0x3ea4f192	0.32215554
99	0xbe578306	-0.21046075
100	0x3f1515bf	0.58236307
101	0x3d99d8bd	0.07512043
102	0x3ea824ac	0.32840478
103	0x3ec26398	0.3796661
104	0x3edf4658	0.43608356
105	0x3ef1e87a	0.47247678
106	0x3f293f15	0.6611188
107	0x3eab2217	0.33424446
108	0x3e5cb41e	0.21553084
109	0x3e807f8f	0.2509732
110	0x3ef08226	0.46974295
111	0x3e15bec5	0.14623554
112	0x3e8bfc4e	0.2734093
113	0x3db314ab	0.087441765
114	0xbdb1c903	-0.08680918
115	0x3eaf555a	0.34244806
116	0x3ee5cbc1	0.44882014
117	0x3eb802ca	0.35939628
118	0x3f1f15ce	0.62142646
119	0x3e8f2c0d	0.27963296
120	0xbdec63db	-0.115424834
121	0x3e181d2c	0.14854878
122	0x3eb45a3e	0.352251
123	0xbe978a2e	-0.2959761
124	0x3e6c5221	0.23078205
125	0x3e9a60f5	0.30152097
126	0x3ef41051	0.47668698
127	0x3e9ecd2a	0.31015903
128	0x3e8f3fbb	0.2797831
129	0x3e4f2902	0.20230487
130	0xbe5aa201	-0.21350862
131	0x3f138530	0.57625103
132	0xbf0e0fb1	-0.55492693
133	0x3c9a08da	0.018803049
134	0x3e52c10f	0.20581459
135	0xbe862141	-0.26197246
136	0xbb8e3890	-0.004340239
137	0xbe93ca57	-0.2886531
138	0xbdcc5627	-0.0997737
139	0xbe8135cf	-0.25236365
140	0xbe66cee4	-0.2253986
141	0xbe79b6b5	-0.24386103
142	0xbedb22ba	-0.42799932
143	0x3e5e1447	0.21687423
144	0xbd884684	-0.06654075
145	0x3f003e4f	0.50095075
146	0x3d2a15b0	0.04152459
147	0x3eb8e733	0.3611389
148	0xbe68c2f3	-0.22730617
149	0x3ebf3162	0.37342364
150	0xbec01b0e	-0.3752064
151	0xbd94b640	-0.07261324
152	0x3ec091c3	0.37611207
153	0x3e61cc43	0.22050576
154	0xbe6988cf	-0.22806095
155	0x3e8fbc2b	0.28073248
156	0x3e6e4c56	0.23271307
157	0xbe004346	-0.12525663
158	0xbe61f9dd	-0.22067972
159	0x3c9cda7e	0.019147154
160	0x3f148ce3	0.58027476
161	0x3f186118	0.59523153
162	0x3f07d96c	0.53066134
163	0x3eaec338	0.34133315
164	0xbe73c516	-0.23805651
165	0x3c13c5bc	0.0090193115
166	0xbdbffb1c	-0.09374067
167	0xbf0e75f5	-0.5564874
168	0x3ef40904	0.47663128
169	0xbee7743e	-0.45205873
170	0xbe7516a9	-0.23934425
171	0x3ebbdb69	0.36690834
172	0xbd77b065	-0.060470957
173	0xbe67fc33	-0.226548
174	0xbcf618ad	-0.030041063
175	0xbec17a00	-0.3778839
176	0xbdea9df0	-0.114559054
177	0xbd472012	-0.04861457
178	0x3d79364f	0.06084281
179	0xbeacac08	-0.33725
180	0x3e9185fd	0.28422537
181	0x3dae2bd6	0.08504455
182	0x3f0e5b9d	0.5560854
183	0xbefe87da	-0.49713022
184	0x3efc4efe	0.49279016
185	0xbf1d8032	-0.61523736
186	0xbd399c5d	-0.045315135
187	0xbea89154	-0.32923377
188	0x3ec79da2	0.38987452
189	0xbdd054f4	-0.101724535
190	0x3f2f9713	0.68589896
191	0xbe6fb831	-0.23410107
192	0x3e984049	0.29736546
193	0xbcf89d72	-0.030348513
194	0x3e8a9dbc	0.27073467
195	0x3e8c37a6	0.27386206
196	0x3d66858a	0.056279697
197	0xbe8de606	-0.27714556
198	0x3e544a84	0.2073155
199	0xbc0f8acd	-0.00876112
200	0xbe675088	-0.22589314
201	0xbdfe897f	-0.12428569
202	0xbf0b5af0	-0.54435635
203	0xbea37deb	-0.31932005
204	0xbec4f0d0	-0.38464975
205	0xbe96aae6	-0.2942726
206	0xbe0bf34f	-0.13667034
207	0xbe3e5a8d	-0.1858923
208	0x3e49cee1	0.19707824
209	0x3e4f5c8b	0.20250146
210	0x3d0becf2	0.034161516
211	0x3dfe9dce	0.124324426
212	0xbd8efe73	-0.06982126
213	0x3e98c5e6	0.29838485
214	0x3e45cd15	0.19316514
215	0xbefb9ff2	-0.49145466
216	0x3dda375f	0.106550924
217	0x3ec1712b	0.37781653
218	0x3eb1cc09	0.3472598
219	0x3ed402ea	0.41408473
220	0x3ef5676a	0.4793046
221	0x3e8754b6	0.26431817
222	0x3e9c5103	0.30530557
223	0xbe68f09d	-0.22748037
224	0xbe39f380	-0.18159294
225	0x3ef53007	0.47888204
226	0xbec98eab	-0.3936666
227	0x3e99ec91	0.30063298
228	0xbee16cbd	-0.44028273
229	0xbef24ccc	-0.47324216
230	0x3e1e33de	0.15449473
231	0x3eb63bb3	0.35592422
232	0xbeb2fe69	-0.34959725
233	0xbe28933c	-0.16462415
234	0xbea1cf84	-0.31603634
235	0x3ebd5d39	0.36985186
236	0x3ea41421	0.32046607
237	0xbd33ce00	-0.04389763
238	0xbe8d7912	-0.27631432
239	0xbe8b7990	-0.27241182
240	0xbe91a7d6	-0.2844836
241	0xbc9e6050	-0.019333035
242	0x3c549fd0	0.012977555
243	0xbe048293	-0.12940435
244	0xbeb51221	-0.35365394
245	0x3eb56cf3	0.35434684
246	0x3d7cb957	0.06170019
247	0xbde69667	-0.11259156
248	0xbeaf6e36	-0.34263772
249	0xbe49dc7d	-0.19713016
250	0x3f1b8066	0.60742795
251	0x3ecbb4f2	0.39786488
252	0xbea98262	-0.33107287
253	0x3eb7cf0d	0.35900155
254	0xbe1eebe9	-0.1551968
255	0x3ef96b6b	0.48714766

l1.bias f4 [8]
0	0x3f0b0a37	0.5431246
1	0x3ea15a5c	0.3151425
2	0x3ef92c1e	0.4866647
3	0x3f0b4cfe	0.54414356
4	0x3f7ef20b	0.9958808
5	0x3f599eb0	0.8500776
6	0x3f394b2b	0.7238032
7	0x3efaa35f	0.48952767

l2.weight f4 [8, 8]
0	0xbf34bd50	-0.7060137
1	0x3f1f6905	0.6226962
2	0x3f55c2c1	0.83500296
3	0x3f828cef	1.019926
4	0x3e851f97	0.26000664
5	0x3f1d5c9f	0.61469454
6	0xbe94e27c	-0.29079044
7	0x3f9ab3bd	1.2086102
8	0x3f9836f0	1.1891766
9	0x3f5ab4cd	0.8543213
10	0xbf6e0d45	-0.92989
11	0xbf2442bf	-0.64164346
12	0x3f490a28	0.7853112
13	0x3dd14cc7	0.10219722
14	0x3f352050	0.7075243
15	0xbd9115ae	-0.07084213
16	0x3e9283a0	0.28616047
17	0xbe48f67e	-0.1962528
18	0x3f873011	1.0561544
19	0xbf1373fb	-0.5759885
20	0x3fe05d1e	1.7528417
21	0x3efcef2b	0.4940122
22	0x3f416da7	0.7555794
23	0xbf6253a5	-0.8840888
24	0xbe9b0848	-0.30279756
25	0xbf239c58	-0.63910437
26	0xbe7c48ba	-0.24637118
27	0x3f959141	1.1684953
28	0x3e8a5cb7	0.2702386
29	0x3f8661f7	1.0498646
30	0x3f75cc33	0.9601471
31	0x3fa2b043	1.2710041
32	0x3f6471a6	0.89235914
33	0x3f8fe292	1.1241019
34	0x3f473a0b	0.7782294
35	0xbe130a27	-0.14359342
36	0x3ed37813	0.41302547
37	0xbf84f374	-1.0386796
38	0xbe9196f4	-0.2843548
39	0x3f40dfb1	0.75341326
40	0x3ef59f43	0.4797307
41	0x3f540e37	0.8283419
42	0xbf574397	-0.8408751
43	0xbdcd3a6d	-0.100209095
44	0xbde200d0	-0.11035311
45	0x3fb083cf	1.3790225
46	0xbf59d22b	-0.85086316
47	0x3e66238a	0.22474495
48	0x3e60c09f	0.21948479
49	0x3f1403b6	0.5781816
50	0x3f83940b	1.0279554
51	0xbee361a0	-0.4441042
52	0x3e5fa86c	0.21841592
53	0x3f35cf6c	0.71019626
54	0xbf8b4488	-1.0880289
55	0xbe99d5a8	-0.3004582
56	0x3f3514b4	0.70734715
57	0xbc513c6b	-0.012770752
58	0xbf0ce417	-0.5503554
59	0xbf4d8703	-0.80284137
60	0x3f65a360	0.89702415
61	0x3e458a9f	0.19291161
62	0xbd635451	-0.055500332
63	0xbf5c5752	-0.8607074

l2.bias f4 [8]
0	0x3ed18a04	0.4092561
1	0x3e14a036	0.1451424
2	0x3f3ca194	0.7368405
3	0x3f3d9e64	0.7406981
4	0x3ebd19bb	0.36933693
5	0x3e9d4e65	0.30723873
6	0x3eb6c04c	0.35693586
7	0x3f26ada1	0.65108687

l3.weight f4 [7, 8]
0	0xbe978e2b	-0.29600653
1	0x3f13162c	0.57455707
2	0xbf78c4af	-0.97175115
3	0xbf1caa38	-0.61197233
4	0x3f232b62	0.6373807
5	0x3dbf07cf	0.09327661
6	0xbed395cb	-0.4132522
7	0xbf3106e5	-0.69151145
8	0x3dd81406	0.10550694
9	0xbf2f9e87	-0.6860127
10	0x3f08b470	0.53400326
11	0xbfc164eb	-1.5108923
12	0x3e88f3e0	0.26748562
13	0xbf4cdd9d	-0.80025655
14	0x3f01a4a9	0.50641876
15	0xbe04757e	-0.12935445
16	0xbfd4ba60	-1.6619377
17	0x3e9f4fca	0.31115562
18	0x3f14e45e	0.5816096
19	0xbe951bd1	-0.29122785
20	0x3e8de438	0.2771318
21	0xbf924bb0	-1.1429348
22	0xbf6515fd	-0.89486676
23	0x3f55441b	0.83307046
24	0xbdd7fcc8	-0.10546261
25	0xbefebb65	-0.49752346
26	0x3f10fc7a	0.5663525
27	0x3ec22ac6	0.3792326
28	0xbf674a9b	-0.90348214
29	0xbf1afb91	-0.6054011
30	0xbeb2e2cd	-0.3493866
31	0xbee1f3ab	-0.44131216
32	0x3f32bd78	0.69820356
33	0xbfaa02ca	-1.3282101
34	0xbf162603	-0.5865175
35	0xbea94bba	-0.33065587
36	0x3f157446	0.58380544
37	0xbf3b60c9	-0.7319456
38	0x3ea67e85	0.32518402
39	0xbf605253	-0.87625617
40	0xbf5ad14d	-0.8547562
41	0x3e894274	0.26808512
42	0xbe6f3a18	-0.23362005
43	0xbfa4a2dc	-1.2862201
44	0xbe3de4e1	-0.18544342
45	0x3f5943ec	0.84869266
46	0x3f1c3132	0.61012566
47	0x3f1c4797	0.6104674
48	0x3f01d76d	0.5071934
49	0xbfa890fd	-1.3169247
50	0xbfbac82f	-1.4592341
51	0x3f08c6db	0.5342843
52	0xbf8d0525	-1.1017195
53	0x3f1bbc51	0.60834223
54	0xbefd1331	-0.49428704
55	0xbf70f51f	-0.94124025

l3.bias f4 [7]
0	0xbe708cb3	-0.23491172
1	0xbe42a122	-0.1900678
2	0xbda1bc9e	-0.07897304
3	0x3ec05eba	0.3757227
4	0xbe958852	-0.29205567
5	0x3e296d54	0.16545612
6	0x3e1d41e6	0.1535717
